clase_1/mlp3.onnx (onnx, 2317 bytes, 5 tensors)

layer1.weight f4 [16, 13]
00000000: ebb3 043e e236 273e c15e 0dbe 7f6d adbe
00000010: 7fec 263e 1e42 d9bd f928 a73e 24bb e23d
00000020: 2c84 083c eb7a cb3e 648a db3d 3842 043e
00000030: 4ac7 1d3e 2795 83be 242e 413d 06b7 acbe
00000040: b51d 08be 38c9 1c3e 0bf0 20be 93be 90be
00000050: e3df 463e 1402 85bb a2fb c2bd a419 8b3e
00000060: ffdb 8fbe 677e 9cbe 17e6 2dbe d604 f23d
00000070: 86af 29be 48a4 2ebe 29cb 8abc 0a71 66bd
00000080: 5b24 9fbc 17e0 113d 6de8 92bd 0d45 30bd
00000090: 0b57 02bd 0849 25be 5ead 0f3e 9d83 fe3e
000000a0: a897 fc3d f19e 0a3e 2c1e debe a39c 9a3d
000000b0: 948a f63d 6620 be3e 8dd3 dfbc 187d 2a3d
000000c0: e0dc 9d3e 2990 2bbc a439 7f3e 07bf e03e
000000d0: 24ab be3d e89e 38be 633a 8dbc c968 2b3c
000000e0: b411 ff3d fbe5 bcbd 1724 3ebe 7357 82be
000000f0: 59bb 1a3e 4089 90bd 281f 24bd 83ad e7bd
00000100: 506a ebbc dfb1 3cbe a717 503e 9aa0 843e
00000110: 1199 23be caed f5bd 2211 1bbe 5166 343d
00000120: 2663 d7bd daaf 483e 6c25 a83d 1bcc 98be
00000130: 6c63 23be c8a7 22be e36d 453e 96ba 02bd
00000140: 92c7 85be c427 583e 9ead eb3c c5c2 54be
00000150: ae0f cb3b f45e 29be 20a0 66be 6c4d 3b3e
00000160: a2c9 863e ab7d 29be 0acc 8abe a019 0dbe
00000170: 7a46 02be 3091 903d 2dfa 1c3e 8136 bebe
00000180: 0392 97be fc87 8cbd bb12 7f3e d65f 70be
00000190: 54b1 c6be 02b0 71be aa55 c9bd e3f6 28be
000001a0: 8f9f 893e 09b5 4dbe 0853 e7bd 818d 9fbd
000001b0: 1b48 5abe ac88 013e d452 6bbd a3fa 083e
000001c0: e748 47be 823c fcbd d2a0 8abd 455a 333e
000001d0: b7f9 bc3d 578d 70be 297f 213d 2ccd 40be
000001e0: dc44 71be ef96 13be 0663 923d c617 0fbd
000001f0: b20d 723e f388 eabd a390 e6bc aa7c 703e
00000200: 0ecf e13d c302 f9bd 73e0 48be 4c7f b63d
00000210: 9a01 013e 1096 283e 4ea7 3fbe f334 f5bd
00000220: c89d 8fbd b5a0 bebd d395 2ebe 1d2e ecbd
00000230: 3496 68be 8bad 5abe fde2 f3bd d8e8 66be
00000240: 9bff 87be da19 0bbd 4b12 163e 01bc a1be
00000250: 573f 70be dabf 60bc a5ce 93bd 1a1b 83be
00000260: dcca 78be 6b7c a6bc 9087 bcbd 2220 f6bd
00000270: 46e8 4bbd c130 74be 9a32 dabc 43c9 433e
00000280: 2175 e7bc 7b62 86be 5d2b 8e3d ccdd 57be
00000290: 9dc6 cfbd 4464 2dbc 49c1 2ebe df72 8ebe
000002a0: f3c4 2dbe 3531 db3d 27e5 32be c9b1 373e
000002b0: 081e 633e 09dc cebd c885 26bd c278 853d
000002c0: c6aa 83be 5014 a1bd e983 11be d517 403e
000002d0: 3048 fe3d 9fc6 b5bd 6d99 703e 38b5 983d
000002e0: 5737 963e 0b5d 87be 4ccb 143e ad8e e3bb
000002f0: a015 243e 9fe3 b5bd a3bd 46be 7388 e13d
00000300: 60e7 1c3e 9022 52be 2a00 acbd 4ee9 d63d
00000310: 27ee 3d3c d741 2abe e12a 683c 9217 193e
00000320: be12 a5bd 66fc f3bc a410 2fbe ae49 75be
00000330: 594f b9bc 2e3f 0bbe ca9a 22be ecee 393e
0.12959258 0.1632953 -0.13805677 -0.338726 0.16301154 -0.10608314 0.32648447 0.110708505
0.0083322935 0.39742216 0.10719755 0.12915885 0.15408054 -0.25699732 0.047163144 -0.33733386
-0.13292582 0.15311134 -0.15716569 -0.28270397 0.19421344 -0.0040590856 -0.095206514 0.27168
-0.2809753 -0.30565187 -0.16982304 0.11817329 -0.16570863 -0.17054856 -0.016942577 -0.056260146
-0.019426515 0.0356141 -0.07173238 -0.043034602 -0.031821292 -0.1614114 0.14030978 0.49709788
0.12333614 0.13537194 -0.43382394 0.07549407 0.120381504 0.37134093 -0.027322555 0.041623205
0.30832577 -0.010471382 0.24924332 0.43895742 0.09309986 -0.18029368 -0.017239755 0.010461994
0.124545485 -0.09223553 -0.18568455 -0.25457343 0.1511053 -0.07057428 -0.040068775 -0.113123916
-0.028737217 -0.18427227 0.20321523 0.2590378 -0.15976359 -0.12008245 -0.15143254 0.04404289
-0.10516958 0.19598332 0.08210263 -0.2984322 -0.15955895 -0.15884316 0.192802 -0.031916223
-0.26128823 0.2110892 0.02876931 -0.20777424 0.0061969375 -0.16540128 -0.2252202 0.18291253
0.2632571 -0.16551845 -0.27108794 -0.13779306 -0.12722197 0.07058942 0.1532981 -0.37150958
-0.29603586 -0.068618745 0.24909489 -0.23474059 -0.38807166 -0.23602298 -0.09830792 -0.1650043
0.26879546 -0.2008859 -0.11295134 -0.077906616 -0.21316569 0.12649792 -0.057452038 0.1337686
-0.19461404 -0.123162284 -0.06768955 0.17514904 0.09227317 -0.23491417 0.03942791 -0.18828267
-0.23561424 -0.14413045 0.071477935 -0.03493478 0.23638037 -0.11451902 -0.02814514 0.23485056
0.11025821 -0.1215873 -0.1961687 0.08910999 0.12598267 0.16463494 -0.18716165 -0.1197299
-0.07012516 -0.09307996 -0.17049341 -0.11532233 -0.22713548 -0.21355264 -0.11908529 -0.2254976
-0.265622 -0.0339602 0.14655416 -0.31588748 -0.23461662 -0.013717616 -0.07217149 -0.25606614
-0.24296135 -0.020322999 -0.09205544 -0.120178476 -0.04978206 -0.23846723 -0.026635457 0.19119744
-0.028254094 -0.2624701 0.06941865 -0.21080703 -0.10145304 -0.010582987 -0.1706592 -0.27822015
-0.16969661 0.10702745 -0.17470227 0.17938913 0.22179425 -0.10100562 -0.040654927 0.06517173
-0.25716227 -0.078652024 -0.14210476 0.18759091 0.124161124 -0.088757746 0.23496027 0.0745644
0.29339096 -0.26438174 0.14530677 -0.0069444985 0.16023874 -0.08881306 -0.19408278 0.11012354
0.15322638 -0.20520997 -0.08398469 0.10493718 0.0115924245 -0.16626678 0.014170379 0.14950398
-0.080602154 -0.029783439 -0.17096192 -0.23953888 -0.022620844 -0.1359832 -0.1587936 0.18157548

layer1.bias f4 [16]
00000000: 6f70 903e b837 bb3e fe35 3cbe dbfd c23e
00000010: 359e 69bd 5bac 00be 6c68 1b3d a036 8c3d
00000020: 8112 c9bd 2bb0 243e f806 743d 79dc a13e
00000030: 0bee 383e e614 5b3e 99c1 5c3e 1bf0 7fbe
0.2821078 0.36565948 -0.18379971 0.380843 -0.057035644 -0.12565748 0.03794138 0.068463564
-0.098179825 0.16082828 0.05957696 0.3161352 0.18059556 0.21394691 0.21558227 -0.24993937

layer2.weight f4 [8, 16]
00000000: 6c1d c4bd d599 34bd f58c 15be 3deb 6dbd
00000010: 4a5f 73be 0ac1 2dbd a209 6c3e 3f28 f2bc
00000020: 67b9 383e 0959 80be 9612 cdbd 7e86 debd
00000030: 6bae 50be a48b 35be b8dd 143e 9720 72be
00000040: 3e9e 92bd 08f8 cbbb 8584 6cbe 9475 663d
00000050: 2540 ff3c e72e 80be ca46 74be cc6e 923d
00000060: d9b6 1bbe 0017 2abe 1d45 8dbd 929c 43be
00000070: abda d13d 4a1d fe3d 9828 e1bc 90b3 413e
00000080: 8e33 b0bd afd6 7fbe b52a 0cbe 03c9 933e
00000090: 25de 843d 8d2d 233e 7938 323e e170 253e
000000a0: 8ffb 67be 70c3 213e ae9f 4f3d 23bd acbd
000000b0: 714c c5bd 7a0d 55be 0779 05be a39a 833c
000000c0: 4ad1 9e3d 4fdf 50be 3249 37be eb1f 62be
000000d0: 6275 743e 76d4 4ebe 5cde 0bbe f5e1 3bbe
000000e0: baa6 393e 88af 5dbe d081 f9bd 279d 30be
000000f0: 40b8 783e bc23 66be 205d c73d 117d 523e
00000100: 0377 823e 1979 6bbd e1fe 383e ccf7 093f
00000110: 07d5 dfbd 38f0 acbd 44e7 02be 422f 58be
00000120: b21f 2abe 51c8 32bd b464 dc3d 95b9 74be
00000130: a19b 69be 193c fdbc 9238 d13c 18a6 693e
00000140: c3fc ad3e 1acb a9bd 9f33 a73d dfbe 333f
00000150: 2795 44be 06b1 1d3e f04d 7fbd 67e4 58be
00000160: 6fa3 653e 9883 903b 1cd3 223d cf1b 4cbe
00000170: e249 0d3e a975 713b 81ce 843e eee0 12be
00000180: 283a 33be 69ef 58bd 6fa9 ec38 4c29 1abe
00000190: 6cc9 44be 77a7 d83c 8aea 473e 8c01 943e
000001a0: 9148 33be db38 773e 042a a83e d782 623e
000001b0: 2888 1cbe 7606 9a3e e2eb c6bd 844c 183e
000001c0: fca1 29be a46a 1a3f d0aa 96bd a47d 60be
000001d0: 02f7 6bbd e16b af3e fe58 6c3d 9316 023f
000001e0: af5d dabd fce9 3b3e be78 7c3e c500 b33e
000001f0: 82ef b83e 23a5 87bd d920 62be 0e7d 053d
-0.09575924 -0.04409202 -0.14604552 -0.05808567 -0.23766819 -0.042420425 0.2305055 -0.029560206
0.18039475 -0.25067928 -0.100133106 -0.10865496 -0.20379035 -0.1772905 0.14537704 -0.23645245
-0.071590886 -0.006224636 -0.23097427 0.056264475 0.031158516 -0.25035784 -0.23855129 0.07150039
-0.1520647 -0.16610336 -0.06897948 -0.19102696 0.10246786 0.1240793 -0.027485177 0.18916154
-0.08603583 -0.24984239 -0.13688166 0.28864297 0.06487683 0.15935345 0.17404355 0.16156341
-0.22654556 0.1579721 0.05068939 -0.084345125 -0.09633721 -0.20805922 -0.1303445 0.016064947
0.077547625 -0.20397685 -0.17899016 -0.22082488 0.23872903 -0.20198235 -0.13659042 -0.18347915
0.18130007 -0.21648991 -0.12182963 -0.17247449 0.24289036 -0.22474569 0.09734559 0.20555522
0.25481424 -0.057488535 0.18065979 0.53893733 -0.109293036 -0.084442556 -0.12783533 -0.21111777
-0.16613653 -0.043648068 0.10761395 -0.23898919 -0.22813274 -0.030912446 0.02553967 0.22817266
0.33981904 -0.08290692 0.08164143 0.7021312 -0.19197522 0.1539956 -0.062330186 -0.21180879
0.22425626 0.0044102184 0.03975211 -0.19932483 0.13797715 0.0036843813 0.259388 -0.14343616
-0.17502654 -0.052962694 0.000112849164 -0.15054816 -0.19217461 0.026447041 0.19523063 0.2890743
-0.1750815 0.24142782 0.32844555 0.22120224 -0.15286314 0.30083054 -0.0971296 0.14872938
-0.16565698 0.6031897 -0.07356799 -0.21922928 -0.057608612 0.34261993 0.057702057 0.50815696
-0.106624 0.18350977 0.24655434 0.34961525 0.3612023 -0.06623294 -0.22082843 0.032589965

layer2.bias f4 [8]
00000000: 316d 873e d510 08be 5968 663e a7a9 7dbc
00000010: 0b64 b83e 6ecc 993d 2faa ac3d d737 c33e
0.26450494 -0.13287671 0.22500743 -0.015482343 0.36013827 0.07509695 0.084308974 0.3812854

layer3.weight f4 [1, 8]
00000000: 53be f7bd 7fc2 2f3e 735a 11be 9133 7fbd
00000010: d8dc 2ebf ea60 54bf 0bf1 d83e ee4c 843f
-0.12096848 0.17164038 -0.1419466 -0.062305037 -0.6830573 -0.8296038 0.423714 1.0335977
