clase_1/mlp3.onnx (onnx, 2317 bytes, 5 tensors)

layer1.weight f4 [16, 13]
000000 1b 26 a3 bc c5 e9 88 be 22 2c 10 3e c3 34 36 be
       -0.019915631 -0.26740852 0.14079335 -0.17793564
000010 a6 e3 f0 3c 9f 68 c5 bd bf d0 85 3e 50 08 b4 3d
       0.029405426 -0.096390955 0.26135823 0.08790648
000020 53 b9 a3 3d 7d b3 29 bd fc 1a 9d bc 24 4f fa 3b
       0.07994332 -0.04143094 -0.019177906 0.007638829
000030 c0 50 24 3e 76 74 6e 3e e3 7a 6c 3e ee b1 5c 3e
       0.16046429 0.23286614 0.23093753 0.2155225
000040 ae 14 92 be ef 98 08 bd 14 52 05 3e a1 c6 24 3e
       -0.28531402 -0.033348974 0.13019592 0.16091396
000050 c7 5c cf 3c 17 ed 52 3d c5 9e db 3e 31 09 b6 3d
       0.025312794 0.051495638 0.4289457 0.08888472
000060 cc c2 87 3d d1 60 0b 3f dd 2d ed 3d cb df ef bd
       0.066289514 0.54444605 0.11581013 -0.11712607
000070 41 b4 24 be f3 c4 8e be cf e1 cf 3d 83 76 6b 3e
       -0.16084386 -0.27884635 0.101504914 0.22994427
000080 d8 54 90 be 7b 32 dc 3d 21 a9 42 be c3 2c 32 3e
       -0.2818973 0.10751816 -0.1900983 0.17399888
000090 82 d9 2b be 2c 51 65 bd 28 79 e3 bd 48 73 b3 be
       -0.16782191 -0.055985615 -0.11107093 -0.3504889
0000a0 ad 00 38 be 0b eb d6 bd f8 a2 1d 3e cf 23 67 be
       -0.17969008 -0.1049405 0.15394199 -0.22572254
0000b0 47 d4 1d bd 7f f1 94 be 47 16 44 bd 9a 5f f2 3b
       -0.03853252 -0.29090497 -0.047872808 0.0073966505
0000c0 5d 1c 23 bd fe e2 fd bd 89 59 18 3d 7c 7b c3 be
       -0.03982197 -0.12396811 0.037194762 -0.3818015
0000d0 6c c1 0a be 96 a4 95 be 7d 45 87 be fe 3e 0f 3c
       -0.13550347 -0.29227132 -0.26420203 0.008743046
0000e0 fe fa f7 bd 37 8b 7a 3e b9 55 9a bd e9 97 03 bd
       -0.1210842 0.24467169 -0.075358815 -0.032127295
0000f0 58 9a 97 be d9 8c 92 bd a5 b5 6c 3e 14 9f 5b 3e
       -0.29609942 -0.07155771 0.23116167 0.21447402
000100 78 23 40 be c1 74 dd bd 6e 68 92 3d e8 91 55 3e
       -0.1876353 -0.10813285 0.07148825 0.2085644
000110 03 bc 6a bc ab 00 85 be 4f f4 18 be aa 02 80 3e
       -0.014327052 -0.25977072 -0.14936946 0.25002033
000120 6c cc 3c bd 26 12 03 be bc 86 2a 3e 84 59 89 bc
       -0.04609339 -0.12799892 0.1665296 -0.016766317
000130 42 3d 73 be 9b df c6 3d 8b c6 9c 3e 92 6b 61 3e
       -0.23753837 0.09710618 0.30620226 0.22013691
000140 05 31 17 be 34 1a c6 bd ee a0 52 3c f8 47 49 3e
       -0.14764793 -0.096729666 0.012855751 0.1965636
000150 1a eb 26 3e 76 d3 24 be e5 d3 fb bc 4a 71 16 3e
       0.16300622 -0.16096291 -0.030740688 0.14691654
000160 1a 99 cd 3b fb b1 3e be b8 83 7d 3e d3 1f c9 bd
       0.0062743546 -0.18622582 0.24757278 -0.09820523
000170 12 73 47 3e 09 40 9f be 48 0e b8 3e 70 a1 31 bc
       0.1947749 -0.31103542 0.35948396 -0.010841712
000180 d3 f9 a3 3d e9 b3 ba be d1 c3 97 3d 46 19 b7 bd
       0.080066346 -0.36465386 0.07410396 -0.089403674
000190 ba 8c 69 be 58 52 50 3e 4f 20 7c be f7 52 5d be
       -0.22807589 0.20343912 -0.246217 -0.2161368
0001a0 bf 55 7e 3e 79 fe e3 bc 5d d7 a5 3c 72 3c 8c be
       0.24837397 -0.027831303 0.020244295 -0.27389866
0001b0 73 46 b6 3c 24 0d 86 3e 1e a9 95 3e 35 ac 4e 3e
       0.02225039 0.261819 0.2923059 0.2018288
0001c0 69 96 bd bd a2 5e 0f be 7b 10 95 3d b8 27 55 3d
       -0.09257204 -0.14000943 0.07278534 0.052039832
0001d0 86 13 64 3c cb f8 c3 3e 41 05 fe 3c 84 5c 25 3e
       0.01392067 0.3827575 0.031008365 0.16148573
0001e0 e5 60 2d be 5c c1 61 bb 0f f4 8f 3d 04 ee 64 bd
       -0.16931494 -0.0034447527 0.07028972 -0.055891052
0001f0 7f 7d 43 3d a8 24 52 3c 46 0f 8c 3d 1c 19 4d be
       0.047727104 0.012826122 0.06838851 -0.2002911
000200 5c 47 55 3e 1e 80 da 3c fe ff ad bc 2f 65 82 bb
       0.20828003 0.02667242 -0.02124023 -0.003979347
000210 15 99 3d be af ec 35 3e da 99 23 3e bc 67 43 be
       -0.18515427 0.17766069 0.15976658 -0.1908254
000220 e2 09 8e bd e3 82 85 3e 3d 8b 32 be 47 4f 46 be
       -0.06935479 0.2607642 -0.17435928 -0.1936618
000230 d4 8d 02 3e 2b a6 e7 bb 10 a1 19 bd 09 af b4 bc
       0.12749416 -0.0070693693 -0.037507117 -0.02205612
000240 d3 3f f0 bd c2 25 76 3c 51 d6 68 3e 7b 28 01 3e
       -0.117309235 0.015023651 0.22738005 0.12613098
000250 28 f9 3c 3e fa 2e 89 bd 8b 3d f1 bb 59 6b 2b 3d
       0.1845442 -0.06698413 -0.007362073 0.04185042
000260 7c 9c 8d 3e dc 55 15 be be 25 0d bc 06 eb a8 bc
       0.2765845 -0.14583534 -0.0086149555 -0.02061988
000270 dd b6 49 3d 63 b9 82 3c 28 d5 1f 3e de 6b 60 3c
       0.049246658 0.01595754 0.15608656 0.013697593
000280 da 08 ff 3b d8 3b 2d 3e ae fc 55 3e 3b 3e 36 3e
       0.0077830376 0.1691736 0.20897171 0.17797177
000290 df c8 29 3e f6 c7 b2 3c e8 aa d9 bc 90 2c 4a be
       0.16580532 0.021823864 -0.026570752 -0.19743562
0002a0 1e 2d f0 3d c1 7c d7 be e3 f6 23 bd a5 74 72 be
       0.117273554 -0.42087367 -0.04003037 -0.23677309
0002b0 76 55 8d 3e 4c ba ff bd aa 86 a3 bd db 69 8b 3c
       0.27604264 -0.12486705 -0.079846695 0.01701825
0002c0 16 b3 df bd b5 3e 41 3e 59 a1 b2 be 28 1f 62 3e
       -0.1092283 0.18871577 -0.34888723 0.22082198
0002d0 f4 e5 e1 bd 09 a2 9b be 66 58 e8 3d 1b bf 0c 3d
       -0.11030188 -0.3039706 0.11344986 0.03436194
0002e0 0f 29 50 be 16 21 c1 3d 7b 6f 94 3e db e9 46 3c
       -0.20328163 0.09430139 0.28991303 0.012140716
0002f0 ef 75 89 3e de ab f8 3d 5c c6 1b 3e 9d 9d b0 3e
       0.2684779 0.12142156 0.15212387 0.3449525
000300 c9 3a e4 3b 43 fb fa 3d 0e a4 1d be f9 94 a1 3e
       0.0069650155 0.122549556 -0.15394613 0.3155897
000310 6b 78 8b 3e d2 38 54 3e f4 d6 a5 be 9d 05 48 3e
       0.2724031 0.207248 -0.3239056 0.19533391
000320 14 f6 1e be e4 ff f0 bd 88 cf 32 3e 07 12 e7 3c
       -0.15523559 -0.11767557 0.1746198 0.028206838
000330 c5 13 4b 3e 13 e9 3a 3e ac 7f 82 3e a2 9c bb 3e
       0.1983176 0.18252973 0.2548803 0.3664294

layer1.bias f4 [16]
000000 80 43 87 be 19 08 e6 3e b3 c1 2f be 36 7f 53 3e
       -0.26418686 0.44928053 -0.17163734 0.20653996
000010 b8 b4 38 be a8 dc fa bd 0f d6 e8 3d 65 02 e6 3e
       -0.18037689 -0.12249118 0.113689534 0.44923702
000020 60 c2 7f 3e c0 e4 6e 3e 66 33 cc bc aa 43 92 3c
       0.24976492 0.23329449 -0.024926852 0.01785453
000030 05 6e 67 bb 7f b6 d2 3e 66 fe 58 3e 4e 15 b5 3d
       -0.003531338 0.41154858 0.21190795 0.08841954

layer2.weight f4 [8, 16]
000000 b9 47 7e 3e d1 fe 23 be 3f 58 f2 bd b1 25 95 bc
       0.24832048 -0.16015173 -0.11833238 -0.01820645
000010 86 5a 3e 3e 6a b5 83 bd 4f 56 df 3c 0c bc e3 bd
       0.1858922 -0.06431086 0.027262835 -0.111198515
000020 7c 99 78 3e d3 7a 0c be a3 28 b9 3d 32 80 e8 3d
       0.242773 -0.13718729 0.09040954 0.11352576
000030 d5 ab 46 be 62 ef 5f be 10 8e 52 3e fc 3c 15 bc
       -0.19401486 -0.21868661 0.20562005 -0.009108778
000040 13 2f 3a 3e 1b 84 10 3f 62 8d 34 bd d0 96 76 be
       0.1818202 0.56451577 -0.044080146 -0.24080968
000050 3f 3c 25 be 00 72 03 be 7c 84 8f 3e ed 7e d3 bd
       -0.16136263 -0.12836456 0.28030765 -0.103269435
000060 9f 14 00 3e 0b 0b 3a 3e cc 61 c5 3d ea 7b 47 3d
       0.12507866 0.18168275 0.09637794 0.048702158
000070 1a 33 28 3d 10 88 8c be 5f 3a 50 3e ba 04 b3 3e
       0.04106436 -0.27447557 0.20334767 0.34964544
000080 4e 0d 22 3d 65 96 7f be a5 74 8f bd 73 fe 05 3f
       0.03956347 -0.24959715 -0.0700467 0.52341384
000090 35 ab 44 3e 0c 7a 15 be d2 be 88 be 72 54 05 3f
       0.19205935 -0.14597338 -0.26708084 0.5208198
0000a0 45 fa 63 be 58 84 05 be cb 63 42 3e b7 e6 30 3e
       -0.22263439 -0.13038766 0.1898338 0.1727551
0000b0 ce 1b bf bd 49 41 6d 3e 8c 7e b9 bd e4 0d 03 3e
       -0.09331475 0.23169436 -0.0905734 0.12798268
0000c0 50 ec 55 be 85 b2 ad 3e 1e 73 21 3e 42 eb 19 3d
       -0.20890927 0.33925262 0.1576657 0.037577875
0000d0 8f 65 32 be 67 fc d8 3d 95 03 06 3d 99 49 0c be
       -0.17421554 0.10595017 0.03271826 -0.1369995
0000e0 ed a8 97 3e 1d 91 f4 3d cb 55 78 be c2 5c a9 3d
       0.29621068 0.11941741 -0.24251477 0.08269645
0000f0 39 8a 9d 3e 6d 8a b3 be 22 a7 67 3e 33 5f 8a 3e
       0.30769518 -0.35066548 0.2262235 0.27025756
000100 57 19 3d bd 54 dc 69 3e 4a 55 32 be 03 19 ef 3c
       -0.046166744 0.22837955 -0.17415348 0.029186731
000110 08 d7 8a bd 4e ac 34 3e 98 f6 86 3d 38 ab f7 3d
       -0.06779295 0.17643854 0.06590003 0.12093204
000120 da e3 3b be ae 49 7c bd 32 02 4e 3e 24 71 1e be
       -0.18348637 -0.061593704 0.20118025 -0.15472847
000130 6e 0d 04 bd 40 5e ff 3d 28 a0 36 bd 60 b8 e3 bd
       -0.03223937 0.12469149 -0.04458633 -0.11119151
000140 30 57 77 3d e3 4d 0c 3d 06 0c 7f 3e 2f f3 3f be
       0.060385883 0.034253966 0.2490693 -0.18745111
000150 dd 9e 85 bd 25 82 0a 3e 38 76 a6 bd 65 0a e4 3d
       -0.065244414 0.13526209 -0.08128017 0.11134795
000160 39 b6 e9 bd 2d 39 80 be fc e2 8a 3d 3e 77 01 bd
       -0.11411709 -0.25043622 0.06781575 -0.03160786
000170 2c ff 04 3c 3d 40 47 bd da 9b 5d 3e 1e 7f e0 bd
       0.008117478 -0.048645247 0.21641484 -0.10961746
000180 89 fd 0d 3d d9 38 08 3f ab 8c 8c 3d 4c cd 31 be
       0.034665618 0.5321174 0.06862768 -0.17363471
000190 fe 93 91 3d 98 77 52 3c a8 4f 83 3e 84 d5 d2 3c
       0.071083054 0.012845896 0.2564671 0.025736578
0001a0 fc 04 c4 bd 9d a6 fc 3d e7 aa 3c be 59 65 d3 bd
       -0.09571263 0.123364665 -0.18424569 -0.10322065
0001b0 63 4a a4 bc 7e 03 8f bd 6c ac 03 3d b1 f1 53 3e
       -0.020055002 -0.06983088 0.032146856 0.20697667
0001c0 17 20 57 be 85 2f 3d be ee 39 3c 3e 56 9c 4c 3e
       -0.21008335 -0.18475159 0.18381473 0.19981512
0001d0 fa 0b a5 3e b2 da e1 3d 0c 7b ba bd 59 6b eb 3e
       0.322357 0.11028041 -0.091055006 0.45980337
0001e0 0a 24 cd bd 2d b7 5b be 7a 78 0d 3e 50 39 0c be
       -0.100166395 -0.21456595 0.1381549 -0.13693738
0001f0 8b 45 3e 3e 1d 2f 24 3f ca 95 68 3d 6f 21 4c be
       0.18581216 0.6413439 0.056783475 -0.19934629

layer2.bias f4 [8]
000000 d3 b2 cd 3b d5 5b 39 3e e3 ca cf 3e 1f 72 87 3e
       0.006277421 0.18101437 0.40584478 0.26454255
000010 fd 9a 58 be ba 45 5d 3d 63 90 04 3e 34 fa c1 3e
       -0.21152873 0.054021575 0.12945704 0.37886202

layer3.weight f4 [1, 8]
000000 7f b1 c2 bc 0c 5f 50 bf 08 d8 5d 3f 6a 0c 30 bf
       -0.023766277 -0.8139503 0.8665776 -0.6876894
000010 99 67 16 bc 05 f2 17 3e 3e be 22 bf 8c 1b 7e 3f
       -0.009179973 0.14838417 -0.63571537 0.99260783
